…
Print Train TD Model:
------------------------------------
multilayer()

Print Val TD Model:
---------------------------------------
multilayer()
------------------------------------------------------------------------------------

Model Summary:
--------------------------------------===============================================================================================
Layer (type:depth-idx)                        Output Shape              Param #
===============================================================================================
├─ConvolutionalVisionTransformer: 1-1         [-1, 1024, 17, 13]        --
|    └─VisionTransformer: 2-1                 [-1, 64, 128, 96]         --
|    |    └─ConvEmbed: 3-1                    [-1, 64, 128, 96]         15,872
|    |    └─Dropout: 3-2                      [-1, 12288, 64]           --
|    └─VisionTransformer: 2-2                 [-1, 192, 64, 48]         --
|    |    └─ConvEmbed: 3-3                    [-1, 192, 64, 48]         111,168
|    |    └─Dropout: 3-4                      [-1, 3072, 192]           --
|    └─VisionTransformer: 2-3                 [-1, 384, 32, 24]         --
|    |    └─ConvEmbed: 3-5                    [-1, 384, 32, 24]         664,704
|    |    └─Dropout: 3-6                      [-1, 768, 384]            --
|    └─Conv2d: 2-4                            [-1, 1024, 17, 13]        1,573,888
|    └─BatchNorm2d: 2-5                       [-1, 1024, 17, 13]        2,048
|    └─LeakyReLU: 2-6                         [-1, 1024, 17, 13]        --
├─DecoderCVT: 1-2                             [-1, 108, 256, 192]       --
|    └─Conv2d: 2-7                            [-1, 384, 18, 14]         1,573,248
|    └─BatchNorm2d: 2-8                       [-1, 384, 18, 14]         768
|    └─LeakyReLU: 2-9                         [-1, 384, 18, 14]         --
|    └─UpSampleBN: 2-10                       [-1, 192, 32, 24]         --
|    |    └─Sequential: 3-7                   [-1, 192, 32, 24]         4,647,744
|    └─UpSampleBN: 2-11                       [-1, 64, 64, 48]          --
|    |    └─Sequential: 3-8                   [-1, 64, 64, 48]          1,107,264
|    └─UpSampleBN: 2-12                       [-1, 64, 128, 96]         --
|    |    └─Sequential: 3-9                   [-1, 64, 128, 96]         148,032
|    └─Upsample: 2-13                         [-1, 64, 256, 192]        --
|    └─Conv2d: 2-14                           [-1, 108, 256, 192]       172,908
|    └─ReLU: 2-15                             [-1, 108, 256, 192]       --
├─mViT: 1-3                                   [-1, 3]                   --
|    └─PatchTransformerEncoder: 2-16          [-1, 2, 128]              --
|    |    └─Conv2d: 3-10                      [-1, 128, 16, 12]         163,968
|    |    └─TransformerEncoder: 3-11          [-1, 2, 128]              1,319,424
|    └─Conv2d: 2-17                           [-1, 128, 256, 192]       5,888
|    └─Sequential: 2-18                       [-1, 3]                   --
|    |    └─Linear: 3-12                      [-1, 256]                 33,024
|    |    └─LeakyReLU: 3-13                   [-1, 256]                 --
|    |    └─Linear: 3-14                      [-1, 256]                 65,792
|    |    └─LeakyReLU: 3-15                   [-1, 256]                 --
|    |    └─Linear: 3-16                      [-1, 3]                   771
===============================================================================================
Total params: 11,606,511
Trainable params: 11,606,511
Non-trainable params: 0
Total mult-adds (G): 19.48
===============================================================================================
Input size (MB): 0.94
Forward/backward pass size (MB): 187.37
Params size (MB): 44.28
Estimated Total Size (MB): 232.58
===============================================================================================

Train TD Model Summary:
==========================================================================================
Layer (type:depth-idx)                   Output Shape              Param #
==========================================================================================
└─multilayer: 0-1                        [-1, 49, 3, 256, 192]     --
==========================================================================================
Total params: 0
Trainable params: 0
Non-trainable params: 0
Total mult-adds (M): 0.00
==========================================================================================
Input size (MB): 20.25
Forward/backward pass size (MB): 0.00
Params size (MB): 0.00
Estimated Total Size (MB): 20.25
==========================================================================================

Val TD Model Summary:
==========================================================================================
Layer (type:depth-idx)                   Output Shape              Param #
==========================================================================================
└─multilayer: 0-1                        [-1, 49, 3, 256, 192]     --
==========================================================================================
Total params: 0
Trainable params: 0
Non-trainable params: 0
Total mult-adds (M): 0.00
==========================================================================================
Input size (MB): 20.25
Forward/backward pass size (MB): 0.00
Params size (MB): 0.00
Estimated Total Size (MB): 20.25
==========================================================================================
…
